…
2020-03-24 17:13:34.137939: W tensorflow/core/platform/cpu_feature_guard.cc:45] The TensorFlow library wasn't compiled to use FMA instructions, but these are available on your machine and could speed up CPU computations.
***  2020-03-24 17:13:29.097763 	 Start runing run_lstnets.py
__________________________________________________________________________________________________
Layer (type)                    Output Shape         Param #     Connected to                     
==================================================================================================
input_1 (InputLayer)            (None, 96, 32)       0                                            
__________________________________________________________________________________________________
input_2 (InputLayer)            (None, 96, 32)       0                                            
__________________________________________________________________________________________________
conv1d_1 (Conv1D)               (None, 93, 3)        387         input_1[0][0]                    
__________________________________________________________________________________________________
conv1d_2 (Conv1D)               (None, 24, 3)        387         input_2[0][0]                    
__________________________________________________________________________________________________
dropout_1 (Dropout)             (None, 93, 3)        0           conv1d_1[0][0]                   
__________________________________________________________________________________________________
dropout_3 (Dropout)             (None, 24, 3)        0           conv1d_2[0][0]                   
__________________________________________________________________________________________________
lambda_1 (Lambda)               (None, 96, 32)       0           input_1[0][0]                    
__________________________________________________________________________________________________
gru_1 (GRU)                     (None, 16)           960         dropout_1[0][0]                  
__________________________________________________________________________________________________
gru_2 (GRU)                     (None, 4)            96          dropout_3[0][0]                  
__________________________________________________________________________________________________
lambda_2 (Lambda)               (None, 32, 96)       0           lambda_1[0][0]                   
__________________________________________________________________________________________________
dropout_2 (Dropout)             (None, 16)           0           gru_1[0][0]                      
__________________________________________________________________________________________________
dropout_4 (Dropout)             (None, 4)            0           gru_2[0][0]                      
__________________________________________________________________________________________________
lambda_3 (Lambda)               (None, 96)           0           lambda_2[0][0]                   
__________________________________________________________________________________________________
concatenate_1 (Concatenate)     (None, 20)           0           dropout_2[0][0]                  
                                                                 dropout_4[0][0]                  
__________________________________________________________________________________________________
dense_2 (Dense)                 (None, 1)            97          lambda_3[0][0]                   
__________________________________________________________________________________________________
dense_1 (Dense)                 (None, 32)           672         concatenate_1[0][0]              
__________________________________________________________________________________________________
lambda_4 (Lambda)               (None, 32)           0           dense_2[0][0]                    
__________________________________________________________________________________________________
add_1 (Add)                     (None, 32)           0           dense_1[0][0]                    
                                                                 lambda_4[0][0]                   
__________________________________________________________________________________________________
activation_1 (Activation)       (None, 32)           0           add_1[0][0]                      
==================================================================================================
Total params: 2,599
Trainable params: 2,599
Non-trainable params: 0
__________________________________________________________________________________________________
(34944, 96, 32)
(34944, 32)
Epoch 1/400
 - 24s - loss: 0.4973
Epoch 2/400
 - 24s - loss: 0.4264
…
