…
2020-03-24 19:24:13.961816: W tensorflow/core/platform/cpu_feature_guard.cc:45] The TensorFlow library wasn't compiled to use FMA instructions, but these are available on your machine and could speed up CPU computations.
***  2020-03-24 19:24:13.203468 	 Start runing run_sepnets.py
----pretrain:  True 	----trainable:  True
__________________________________________________________________________________________________
Layer (type)                    Output Shape         Param #     Connected to                     
==================================================================================================
input_1 (InputLayer)            (None, 96, 32)       0                                            
__________________________________________________________________________________________________
Conv1D-1 (Conv1D)               (None, 96, 1)        33          input_1[0][0]                    
__________________________________________________________________________________________________
Conv1D-3 (Conv1D)               (None, 94, 1)        97          input_1[0][0]                    
__________________________________________________________________________________________________
Conv1D-5 (Conv1D)               (None, 92, 1)        161         input_1[0][0]                    
__________________________________________________________________________________________________
lambda_33 (Lambda)              (None, 96)           0           input_1[0][0]                    
__________________________________________________________________________________________________
lambda_34 (Lambda)              (None, 96)           0           input_1[0][0]                    
__________________________________________________________________________________________________
lambda_35 (Lambda)              (None, 96)           0           input_1[0][0]                    
__________________________________________________________________________________________________
lambda_36 (Lambda)              (None, 96)           0           input_1[0][0]                    
__________________________________________________________________________________________________
lambda_37 (Lambda)              (None, 96)           0           input_1[0][0]                    
__________________________________________________________________________________________________
lambda_38 (Lambda)              (None, 96)           0           input_1[0][0]                    
__________________________________________________________________________________________________
lambda_39 (Lambda)              (None, 96)           0           input_1[0][0]                    
__________________________________________________________________________________________________
lambda_40 (Lambda)              (None, 96)           0           input_1[0][0]                    
__________________________________________________________________________________________________
lambda_41 (Lambda)              (None, 96)           0           input_1[0][0]                    
__________________________________________________________________________________________________
lambda_42 (Lambda)              (None, 96)           0           input_1[0][0]                    
__________________________________________________________________________________________________
lambda_43 (Lambda)              (None, 96)           0           input_1[0][0]                    
__________________________________________________________________________________________________
lambda_44 (Lambda)              (None, 96)           0           input_1[0][0]                    
__________________________________________________________________________________________________
lambda_45 (Lambda)              (None, 96)           0           input_1[0][0]                    
__________________________________________________________________________________________________
lambda_46 (Lambda)              (None, 96)           0           input_1[0][0]                    
__________________________________________________________________________________________________
lambda_47 (Lambda)              (None, 96)           0           input_1[0][0]                    
__________________________________________________________________________________________________
lambda_48 (Lambda)              (None, 96)           0           input_1[0][0]                    
__________________________________________________________________________________________________
lambda_49 (Lambda)              (None, 96)           0           input_1[0][0]                    
__________________________________________________________________________________________________
lambda_50 (Lambda)              (None, 96)           0           input_1[0][0]                    
__________________________________________________________________________________________________
lambda_51 (Lambda)              (None, 96)           0           input_1[0][0]                    
__________________________________________________________________________________________________
lambda_52 (Lambda)              (None, 96)           0           input_1[0][0]                    
__________________________________________________________________________________________________
lambda_53 (Lambda)              (None, 96)           0           input_1[0][0]                    
__________________________________________________________________________________________________
lambda_54 (Lambda)              (None, 96)           0           input_1[0][0]                    
__________________________________________________________________________________________________
lambda_55 (Lambda)              (None, 96)           0           input_1[0][0]                    
__________________________________________________________________________________________________
lambda_56 (Lambda)              (None, 96)           0           input_1[0][0]                    
__________________________________________________________________________________________________
lambda_57 (Lambda)              (None, 96)           0           input_1[0][0]                    
__________________________________________________________________________________________________
lambda_58 (Lambda)              (None, 96)           0           input_1[0][0]                    
__________________________________________________________________________________________________
lambda_59 (Lambda)              (None, 96)           0           input_1[0][0]                    
__________________________________________________________________________________________________
lambda_60 (Lambda)              (None, 96)           0           input_1[0][0]                    
__________________________________________________________________________________________________
lambda_61 (Lambda)              (None, 96)           0           input_1[0][0]                    
__________________________________________________________________________________________________
lambda_62 (Lambda)              (None, 96)           0           input_1[0][0]                    
__________________________________________________________________________________________________
lambda_63 (Lambda)              (None, 96)           0           input_1[0][0]                    
__________________________________________________________________________________________________
lambda_64 (Lambda)              (None, 96)           0           input_1[0][0]                    
__________________________________________________________________________________________________
LSTM-1 (LSTM)                   (None, 16)           1152        Conv1D-1[0][0]                   
__________________________________________________________________________________________________
LSTM-3 (LSTM)                   (None, 16)           1152        Conv1D-3[0][0]                   
__________________________________________________________________________________________________
LSTM-5 (LSTM)                   (None, 16)           1152        Conv1D-5[0][0]                   
__________________________________________________________________________________________________
model_1 (Model)                 (None, 1)            99          lambda_33[0][0]                  
__________________________________________________________________________________________________
model_2 (Model)                 (None, 1)            99          lambda_34[0][0]                  
__________________________________________________________________________________________________
model_3 (Model)                 (None, 1)            99          lambda_35[0][0]                  
__________________________________________________________________________________________________
model_4 (Model)                 (None, 1)            99          lambda_36[0][0]                  
__________________________________________________________________________________________________
model_5 (Model)                 (None, 1)            99          lambda_37[0][0]                  
__________________________________________________________________________________________________
model_6 (Model)                 (None, 1)            99          lambda_38[0][0]                  
__________________________________________________________________________________________________
model_7 (Model)                 (None, 1)            99          lambda_39[0][0]                  
__________________________________________________________________________________________________
model_8 (Model)                 (None, 1)            99          lambda_40[0][0]                  
__________________________________________________________________________________________________
model_9 (Model)                 (None, 1)            99          lambda_41[0][0]                  
__________________________________________________________________________________________________
model_10 (Model)                (None, 1)            99          lambda_42[0][0]                  
__________________________________________________________________________________________________
model_11 (Model)                (None, 1)            99          lambda_43[0][0]                  
__________________________________________________________________________________________________
model_12 (Model)                (None, 1)            99          lambda_44[0][0]                  
__________________________________________________________________________________________________
model_13 (Model)                (None, 1)            99          lambda_45[0][0]                  
__________________________________________________________________________________________________
model_14 (Model)                (None, 1)            99          lambda_46[0][0]                  
__________________________________________________________________________________________________
model_15 (Model)                (None, 1)            99          lambda_47[0][0]                  
__________________________________________________________________________________________________
model_16 (Model)                (None, 1)            99          lambda_48[0][0]                  
__________________________________________________________________________________________________
model_17 (Model)                (None, 1)            99          lambda_49[0][0]                  
__________________________________________________________________________________________________
model_18 (Model)                (None, 1)            99          lambda_50[0][0]                  
__________________________________________________________________________________________________
model_19 (Model)                (None, 1)            99          lambda_51[0][0]                  
__________________________________________________________________________________________________
model_20 (Model)                (None, 1)            99          lambda_52[0][0]                  
__________________________________________________________________________________________________
model_21 (Model)                (None, 1)            99          lambda_53[0][0]                  
__________________________________________________________________________________________________
model_22 (Model)                (None, 1)            99          lambda_54[0][0]                  
__________________________________________________________________________________________________
model_23 (Model)                (None, 1)            99          lambda_55[0][0]                  
__________________________________________________________________________________________________
model_24 (Model)                (None, 1)            99          lambda_56[0][0]                  
__________________________________________________________________________________________________
model_25 (Model)                (None, 1)            99          lambda_57[0][0]                  
__________________________________________________________________________________________________
model_26 (Model)                (None, 1)            99          lambda_58[0][0]                  
__________________________________________________________________________________________________
model_27 (Model)                (None, 1)            99          lambda_59[0][0]                  
__________________________________________________________________________________________________
model_28 (Model)                (None, 1)            99          lambda_60[0][0]                  
__________________________________________________________________________________________________
model_29 (Model)                (None, 1)            99          lambda_61[0][0]                  
__________________________________________________________________________________________________
model_30 (Model)                (None, 1)            99          lambda_62[0][0]                  
__________________________________________________________________________________________________
model_31 (Model)                (None, 1)            99          lambda_63[0][0]                  
__________________________________________________________________________________________________
model_32 (Model)                (None, 1)            99          lambda_64[0][0]                  
__________________________________________________________________________________________________
add_1 (Add)                     (None, 16)           0           LSTM-1[0][0]                     
                                                                 LSTM-3[0][0]                     
                                                                 LSTM-5[0][0]                     
__________________________________________________________________________________________________
concatenate_33 (Concatenate)    (None, 32)           0           model_1[1][0]                    
                                                                 model_2[1][0]                    
                                                                 model_3[1][0]                    
                                                                 model_4[1][0]                    
                                                                 model_5[1][0]                    
…
